ass2/saved_model/lunar_checkpoint/ckpt.pth (torch, 29583 bytes, 8 tensors)

fc1.weight f4 [32, 8]
0	0x3e978526	0.29593772
1	0xbc44531e	-0.011982707
2	0xbe0ad4f7	-0.13557802
3	0xbd98f0f4	-0.07467833
4	0x3eefb88d	0.4682049
5	0x3e466ce4	0.19377476
6	0x3f0ff687	0.56235546
7	0xbd320e9e	-0.04347097
8	0x3df1a5fa	0.11799236
9	0xc0079b6a	-2.1188607
10	0xbcbc8bed	-0.02301594
11	0xbef5f44c	-0.48037946
12	0xbf072cbf	-0.5280265
13	0x3d82999d	0.06376956
14	0x3e385918	0.18002737
15	0xbd73d2cc	-0.059527203
16	0x3e21d8f4	0.15805417
17	0xbeb00514	-0.34378874
18	0x3ee323c0	0.44363213
19	0xbed30041	-0.4121113
20	0x3b60d550	0.0034306832
21	0xbedad9b1	-0.4274421
22	0x3e1c5d51	0.15269972
23	0x3e1cf117	0.15326343
24	0x3e662208	0.2247392
25	0xbef7e56e	-0.48417228
26	0x3eaf2733	0.34209594
27	0xbf005976	-0.50136507
28	0xbeec96a4	-0.4620868
29	0xbf4ecfc4	-0.80785775
30	0x3ddee98a	0.10884388
31	0x3d07b67c	0.033133015
32	0x3e8d6ed8	0.2762363
33	0x3d9c1a49	0.07622201
34	0x3d4c4ee6	0.04987993
35	0xbe8839d4	-0.2660662
36	0xbf688b35	-0.90837413
37	0xbe2de83b	-0.1698312
38	0x3de4f606	0.11179738
39	0xbfaf1435	-1.3678042
40	0x3dcb6bfb	0.09932705
41	0x3f12e2b8	0.57377195
42	0x3eaa9c93	0.33322582
43	0xbe20f929	-0.15720047
44	0xbdd0fafd	-0.10204122
45	0xbe3ef089	-0.18646444
46	0xbf133ea9	-0.57517487
47	0xbe3a84b7	-0.18214689
48	0xbecaf4ef	-0.39639995
49	0x3f3bd4f6	0.7337183
50	0x3ea0c0b3	0.31397018
51	0xbe9febf7	-0.31234714
52	0xbe1c97b7	-0.1529225
53	0xbf07ad14	-0.5299847
54	0xbd7a81c2	-0.061158903
55	0xbe598b8c	-0.21244639
56	0xbf8449cc	-1.0335021
57	0x3a04bc62	0.00050634716
58	0xbdb8fe2d	-0.09032855
59	0xbed203f5	-0.41018644
60	0xbf0403a6	-0.5156807
61	0x3ecc239a	0.39870912
62	0xbd02faee	-0.031977586
63	0x3e210f3e	0.1572847
64	0xbef24f89	-0.47326306
65	0xbda731ab	-0.0816377
66	0xbee22c06	-0.44174212
67	0xbf27e401	-0.6558228
68	0x3dd336df	0.103132
69	0x3b477802	0.003043652
70	0xbdd68a53	-0.10475602
71	0x3e88db45	0.2672979
72	0x3d511ab2	0.05105085
73	0x3e1180eb	0.14209335
74	0xbfbd94af	-1.4811
75	0xbeb8ba49	-0.36079624
76	0x3e90e9b1	0.28303292
77	0x3ed42e22	0.41441447
78	0x3ebb706a	0.36609203
79	0x3e512a9a	0.20426407
80	0x3e35af3d	0.1774263
81	0x3f0ee595	0.55819064
82	0xbed4cfc7	-0.41564772
83	0x3f8cb2d5	1.0992075
84	0xbf5d0dc6	-0.8634914
85	0x3d26c29b	0.040712934
86	0xbd943f87	-0.072386794
87	0x3d04a615	0.03238495
88	0x3d8e9a1f	0.0696299
89	0xbd92d61b	-0.071697436
90	0x3fdc6bca	1.7220395
91	0xbf34ed17	-0.7067427
92	0xbd577bcd	-0.0526083
93	0x3d4c7fe6	0.04992666
94	0x3d202ef1	0.039107267
95	0x3ec7dc2a	0.3903516
96	0x3e7fbf47	0.2497531
97	0x3e1cd83a	0.15316859
98	0xbe67bdd9	-0.22631015
99	0xbded5a8e	-0.115895376
100	0x3e2cbd55	0.168691
101	0xbf4b89dd	-0.7950724
102	0xbe24c71f	-0.16091584
103	0x3ed51a08	0.41621423
104	0xbf17f6e8	-0.59361124
105	0xbea71928	-0.3263638
106	0xbf29c375	-0.6631387
107	0xbe9cc6ae	-0.3062033
108	0x3f703232	0.9382659
109	0x3dca0150	0.098635316
110	0x3d4bc4a0	0.049748063
111	0x3dd7ae5f	0.105313055
112	0xbe095608	-0.13411725
113	0x3f1a7bcf	0.60345167
114	0x3d8547a0	0.06507802
115	0xbf108e95	-0.5646756
116	0x3ecb565c	0.39714324
117	0xbec0e249	-0.37672642
118	0xbe8bf12f	-0.27332446
119	0xbc3e148c	-0.011601578
120	0xbeb42b46	-0.35189265
121	0xbeefe44b	-0.4685386
122	0xbf1028df	-0.56312364
123	0xbe3ba3f3	-0.1832426
124	0xbe6c5507	-0.2307931
125	0x3eebf945	0.46088615
126	0x3c3aec56	0.011408886
127	0xbe58b312	-0.2116206
128	0xbeb59b09	-0.35469845
129	0x3f0a9aeb	0.54142636
130	0x3e62beb6	0.22143063
131	0x3f452f20	0.7702503
132	0x3e9266f4	0.28594172
133	0x3ea867f7	0.3289182
134	0x3dd1442c	0.10218081
135	0xbd4390ef	-0.04774564
136	0x3e11b0a5	0.14227541
137	0xbd296b6a	-0.041362204
138	0x3e67e93e	0.22647569
139	0x3f72fe0f	0.9491891
140	0xbe949330	-0.29018545
141	0xbdb8e470	-0.09027946
142	0x3e7ea467	0.24867402
143	0x3ce1f3c7	0.027582062
144	0xbe99b9f4	-0.30024683
145	0xbdda7b6e	-0.106680736
146	0xbca8c8d5	-0.020603577
147	0x3f0c0423	0.5469381
148	0x3e4b25f2	0.19838694
149	0x3f45b075	0.7722238
150	0x3ea11c68	0.31466985
151	0x3ec78089	0.38965252
152	0xbe2b24a3	-0.16713195
153	0xbdb3896a	-0.08766444
154	0xbeaedcc0	-0.34152794
155	0x3ec13bb6	0.37740868
156	0x3f08464c	0.53232265
157	0x3f0539b7	0.5204119
158	0xbf0ec584	-0.55770135
159	0xbe16574c	-0.14681739
160	0x3ed59d2e	0.4172148
161	0x3f2aad08	0.66670275
162	0x3d9ab558	0.0755412
163	0x3e755019	0.23956336
164	0xbe2f449b	-0.17116015
165	0x3f08c773	0.53429335
166	0x3d87470d	0.06605349
167	0xbe0887c8	-0.13333046
168	0x3cadcfd7	0.02121727
169	0xbe428de9	-0.18999447
170	0xbe47f995	-0.19528802
171	0xbe5c2d9c	-0.21501774
172	0x3edfb690	0.43693972
173	0x3f1e6639	0.6187473
174	0xbd52fce4	-0.051510707
175	0xbf360807	-0.71106
176	0xbeab090a	-0.33405334
177	0x3ed87033	0.422731
178	0x3c3c1a10	0.011480823
179	0x3e68ebc0	0.22746181
180	0xbd6ca065	-0.05777015
181	0xbe6fd461	-0.2342086
182	0xbdb438ad	-0.087998725
183	0xbed96167	-0.42457125
184	0x3f5b26c2	0.85606015
185	0xbdf93e90	-0.12170136
186	0x3e9cfced	0.30661717
187	0xbed0bad0	-0.40767527
188	0x3dd555bc	0.10416743
189	0x3e00120f	0.12506889
190	0x3caf3ddb	0.0213918
191	0x3f0519a9	0.5199228
192	0xbf050ca8	-0.51972437
193	0xbf378fb5	-0.71703655
194	0x3dc9013b	0.09814688
195	0x3f4fe019	0.8120132
196	0x3d43c6a8	0.047796875
197	0xbc350b04	-0.01104999
198	0xbda70939	-0.08156056
199	0x3eddc5e6	0.43315047
200	0x3f120db2	0.5705215
201	0x3d1fdcf6	0.039029084
202	0x3ee9d567	0.45670626
203	0xbf1d25b1	-0.6138564
204	0x3cd30967	0.02576132
205	0x3e392510	0.18080544
206	0x3cf42c2a	0.029806215
207	0x3d6a2906	0.05716803
208	0xbe482c8e	-0.19548246
209	0xbeb6f352	-0.35732514
210	0x3e173ab8	0.14768493
211	0xbec2e333	-0.38063964
212	0xbee5414e	-0.44776386
213	0xbed34e4e	-0.4127068
214	0x3e047a17	0.12937199
215	0x3e89ef9f	0.2694063
216	0x3d9c448b	0.07630261
217	0x3d57cf5a	0.05268798
218	0x3f50868b	0.81455296
219	0x3ec6184a	0.38690406
220	0x3e1614b0	0.14656329
221	0x3ee1f900	0.44135284
222	0x3d6db3c9	0.058032785
223	0x3e613ebe	0.2199659
224	0xbee74d1a	-0.4517601
225	0xbe84e8e1	-0.25958923
226	0xbf1f189d	-0.6214693
227	0x3ed1c4a0	0.40970325
228	0xbe44ca61	-0.19217826
229	0xbeae24cd	-0.34012452
230	0xbe9dc924	-0.3081752
231	0x3de7f756	0.113264725
232	0xbcde3a6f	-0.027127473
233	0x3c0f8a59	0.008761012
234	0xbca3b9e8	-0.019986108
235	0xbd1777d1	-0.0369795
236	0x3fcb8fde	1.590328
237	0xbdb349e6	-0.087543294
238	0xbca2f88a	-0.019893903
239	0xbb63d53d	-0.003476455
240	0xbe861ac7	-0.26192304
241	0xbfbd60bb	-1.4795145
242	0x3dc7b425	0.09751157
243	0xbef9e9f8	-0.48811316
244	0x3e97f356	0.29677838
245	0xbd10fc4f	-0.03539687
246	0xbda46ced	-0.080285884
247	0x3e7d4fcf	0.24737476
248	0x3ecd9fda	0.4016102
249	0x3ecb09d1	0.39655927
250	0x3ee50b16	0.4473502
251	0xbf0aacef	-0.54170126
252	0xbf0b80a0	-0.5449314
253	0xbe51268f	-0.20424865
254	0xbe1b6e67	-0.15178834
255	0x3d1dd365	0.03853168

fc1.bias f4 [32]
0	0xbe55ccd2	-0.20878914
1	0x3e2cae63	0.16863398
2	0x3e436f8c	0.1908552
3	0xbe260d9b	-0.16216128
4	0x3e94be26	0.29051322
5	0x3e0c29f6	0.13687882
6	0xbe014248	-0.1262294
7	0x3ea96e5d	0.33092013
8	0xbd020fee	-0.031753473
9	0x3ea1d978	0.31611228
10	0xbe17a36b	-0.14808433
11	0x3d0e328a	0.034716167
12	0xbe960fcb	-0.29308924
13	0xbe71f9da	-0.23630467
14	0x3ebec748	0.37261415
15	0x3f2a2759	0.6646629
16	0x3eb032b5	0.34413686
17	0x3f29aebd	0.66282254
18	0xbea822b0	-0.32838964
19	0xbedca4ec	-0.43094575
20	0xbe0aeff5	-0.13568099
21	0xbd2b81de	-0.041871898
22	0xbe9d4c92	-0.3072248
23	0xbdbdc2e3	-0.09265687
24	0x3e12c604	0.1433335
25	0xbe18924d	-0.1489956
26	0x3e6deda6	0.23235187
27	0x3e84782d	0.25872937
28	0x3e859b70	0.26095152
29	0xbcb09542	-0.021555547
30	0x3eb0d62a	0.34538394
31	0x3eb036ba	0.34416753

fc2.weight f4 [64, 32]
0	0xbf44fd0a	-0.76948607
1	0x3e701355	0.23444875
2	0xbe39bd47	-0.1813861
3	0xbe8f6050	-0.28003168
4	0x3f15aca8	0.5846658
5	0xbe8fce5d	-0.2808713
6	0x3f1f2b42	0.6217538
7	0x3e7b90b3	0.24566917
8	0xbf18aac1	-0.5963555
9	0xbe66f03e	-0.22552583
10	0x3e995b88	0.29952645
11	0x3ce500db	0.02795451
12	0xbefd21bd	-0.49439803
13	0xbfa8201d	-1.31348
14	0x3e905e94	0.28197157
15	0x3e7c8f7a	0.24664107
16	0xbdbadd50	-0.09124243
17	0x3ea143c6	0.3149702
18	0x3d212e6e	0.03935092
19	0x3e983de1	0.2973471
20	0x3e710f1d	0.23540922
21	0xbf6b74de	-0.919752
22	0xbea41dea	-0.32054073
23	0xbe7e937a	-0.24860945
24	0x3ebf7c0f	0.37399337
25	0xbebb12f6	-0.36537904
26	0xbe49c7df	-0.19705151
27	0x3dcb6eb6	0.09933226
28	0xbf3efd37	-0.74605125
29	0x3f2a73c0	0.6658287
30	0xbe931276	-0.28725022
31	0x3da4c2ed	0.08044992
32	0xbed692dc	-0.4190892
33	0x3ea62a7c	0.32454288
34	0x3c2a6a19	0.010401272
35	0x3ed0a750	0.4075265
36	0x3f1be4ac	0.608958
37	0x3e9234b2	0.28555828
38	0xbf356cf1	-0.70869356
39	0x3d82c47d	0.063851334
40	0xbc721fc6	-0.014778083
41	0xbe693114	-0.22772628
42	0x3e639cd7	0.22227798
43	0x3e8fa948	0.2805884
44	0xbcb8ef83	-0.022575146
45	0xbc914693	-0.017733848
46	0xbf29b79f	-0.6629581
47	0x3e820afd	0.25399008
48	0xbe3af6b0	-0.18258166
49	0xbe439f00	-0.19103622
50	0x3dc5ba94	0.096547276
51	0x3f1c0484	0.6094439
52	0xbf0fb864	-0.5614073
53	0xbc1228f3	-0.008920896
54	0x3e99b8c9	0.30023792
55	0xbc8dede9	-0.017325358
56	0x3ea2a9b8	0.3177011
57	0x39a59ce3	0.00031588142
58	0x3e2944c4	0.16530138
59	0x3e319c7e	0.17344853
60	0xbd97c4ff	-0.07410621
61	0xbf09649e	-0.53669155
62	0x3e405134	0.18780977
63	0x3ef1bc07	0.47213766
64	0x3f030536	0.51179826
65	0xbf1096da	-0.5648018
66	0xbf1bd6c7	-0.608746
67	0xbf4c5f7d	-0.79833204
68	0xbf02c9c8	-0.51089144
69	0xbe91afbc	-0.28454387
70	0xbf3b96cb	-0.73276967
71	0x3df80089	0.12109477
72	0x3ec94f96	0.39318532
73	0x3d0179d2	0.031610318
74	0xbe922435	-0.2854325
75	0x3f6372e4	0.88847184
76	0xbf8f7812	-1.1208518
77	0x3edc24bb	0.42996773
78	0xbd4bd011	-0.049758974
79	0xbde727a7	-0.1128686
80	0x3ec33e9e	0.3813371
81	0xbe6bc545	-0.23024471
82	0x3f27ae85	0.6550067
83	0x3f2f381d	0.68445
84	0x3e8d68e2	0.27619082
85	0x3e705322	0.23469213
86	0xbe4225e6	-0.1895977
87	0x3d4cb7fa	0.04998014
88	0xbeb516f1	-0.35369065
89	0x3f05878e	0.52159965
90	0xbf7e7936	-0.99403703
91	0x3e868899	0.2627609
92	0xbf551c06	-0.83245885
93	0x3e9f018d	0.3105587
94	0xbed0f5a5	-0.40812412
95	0xbed32235	-0.41237035
96	0xbcb85bb9	-0.022504674
97	0xbe596759	-0.2123083
98	0xbd1e5ed4	-0.038664654
99	0x3e3f5171	0.18683411
100	0x3e6dd32c	0.23225087
101	0x3f490649	0.78525215
102	0xbe97bb73	-0.296352
103	0x3e30e914	0.17276412
104	0x3ec35095	0.38147417
105	0xbd71a6ab	-0.058996838
106	0xbebbe2c4	-0.36696446
107	0xbe8452c0	-0.25844383
108	0x3ec6931f	0.3878412
109	0x3e24433d	0.16041274
110	0xbe31b25b	-0.17353193
111	0xbda18617	-0.07886904
112	0x3eebadde	0.46031088
113	0xbe750b79	-0.23930158
114	0x3d1ecf20	0.03877175
115	0x3f69b99c	0.9129884
116	0xbe3184e7	-0.17335854
117	0x3ecdf421	0.40225318
118	0x3d7bc32c	0.061465427
119	0x3ef9b299	0.48769072
120	0xbeca3099	-0.39490202
121	0x3e71a684	0.23598677
122	0xbd96c22f	-0.07361256
123	0x3e04adb1	0.12956883
124	0x3df10e89	0.117703505
125	0xbf121e99	-0.5707794
126	0xbe4cfdfd	-0.20018764
127	0x3ea515ca	0.32243186
128	0xbede7f33	-0.4345642
129	0x3c85aa86	0.016316663
130	0xbe7cf17e	-0.24701497
131	0xbec3204f	-0.38110587
132	0x3e59dabc	0.21274847
133	0xbf3a343d	-0.7273596
134	0x3ec403f8	0.38284278
135	0x3e8f173d	0.27947417
136	0xbd980534	-0.074228674
137	0x3e29a137	0.16565405
138	0x3ec90077	0.39258167
139	0x3eb9a91e	0.3626184
140	0xbf0792e1	-0.52958494
141	0xbfa6a04f	-1.3017672
142	0x3e87e463	0.26541433
143	0x3edb87d1	0.42877057
144	0xbea531e7	-0.32264635
145	0x3f0a71c7	0.5407986
146	0xbd12be25	-0.035825867
147	0xbe8f8c71	-0.28036836
148	0x3ef4d784	0.47820675
149	0xbf52a26c	-0.82279086
150	0xbed89c9e	-0.4230699
151	0x3d826d37	0.06368487
152	0x3f11a252	0.56888306
153	0xbd7c2a17	-0.061563578
154	0xbc8c77d3	-0.01714698
155	0x3d2d1631	0.04225749
156	0xbdc5f064	-0.096649915
157	0x3f07bfd1	0.53027064
158	0x3da13276	0.07870953
159	0x3e464d0d	0.1936533
160	0xbc8cadd4	-0.017172731
161	0x3db1a14b	0.08673342
162	0xbd7a39ee	-0.061090402
163	0x3e9d5638	0.30729842
164	0x3e201fad	0.15637083
165	0x3ee16fb7	0.44030544
166	0xbecfe6cd	-0.40605775
167	0xbe991e4d	-0.2990593
168	0x3ebcf2bb	0.3690394
169	0x3e7e5e7c	0.2484073
170	0xbe9ea2c5	-0.30983558
171	0x3d8d8dd1	0.06911815
172	0x3e9f7ffa	0.31152326
173	0x3eb87ba5	0.36031833
174	0x3d80cca6	0.062890336
175	0xbdc8f0ee	-0.09811579
176	0x3e2e7e2d	0.1704032
177	0xbea6d047	-0.32580778
178	0xbd834b98	-0.06410903
179	0x3f6cfdf5	0.9257501
180	0x3c1f2dc8	0.009715505
181	0x3ebf8808	0.3740847
182	0xbccaae79	-0.024741398
183	0x3df4bdb9	0.11950249
184	0xbf158e40	-0.5842018
185	0x3d4a339d	0.04936563
186	0xbd68512e	-0.056718044
187	0x3e0d324a	0.13788715
188	0xbebdd689	-0.3707774
189	0xbebfaba5	-0.37435642
190	0x3d94ecbf	0.07271718
191	0x3e19068f	0.14943908
192	0x3eb15b94	0.3464018
193	0x3d79f8c5	0.06102826
194	0x3e8e2918	0.27765727
195	0x3de7aa73	0.113118075
196	0x3da7dff8	0.081970155
197	0x3f330da7	0.69942707
198	0xbecb5e1a	-0.3972023
199	0x3f0a8602	0.5411073
200	0x3f62ead6	0.8863958
201	0xbef567bb	-0.47930703
202	0xbe8fdf6a	-0.2810014
203	0x3d87c334	0.06629029
204	0xbecc0612	-0.3984838
205	0x3ee3c214	0.44484007
206	0x3d24a02e	0.04019182
207	0x3d9eb205	0.07748798
208	0x3e8a00d5	0.2695376
209	0xbe59b36b	-0.21259849
210	0x3f05eeb0	0.52317333
211	0x3f241aeb	0.64103574
212	0xbe16d65c	-0.14730209
213	0x3f3078ab	0.68934125
214	0x3eb1548f	0.34634826
215	0xbe1209f6	-0.14261612
216	0xbf3fc5cd	-0.74911195
217	0xbc1371de	-0.008999316
218	0x3e5c05c7	0.21486579
219	0x3ca00d46	0.01953758
220	0xbeeb0bf5	-0.4590756
221	0x3d6fb53d	0.05852245
222	0x3dc3636b	0.09540447
223	0xbc02da32	-0.007986592
224	0xbd88e1a6	-0.06683664
225	0x3ea284bb	0.3174189
226	0x3e270a64	0.16312557
227	0x3ea08065	0.31347957
228	0x3eeedfd7	0.4665515
229	0x3ebda0f7	0.3703687
230	0xbe6a2874	-0.22866994
231	0x3dc1b99f	0.094592325
232	0xbcb0ce30	-0.021582693
233	0x3ea90ef5	0.33019224
234	0xbe0546b0	-0.13015246
235	0x3ef9d74f	0.4879708
236	0x3e8fd1d1	0.28089765
237	0xbea53dbc	-0.32273662
238	0x3cd41135	0.025887111
239	0x3efe6eb5	0.49693838
240	0xbde64b47	-0.11244827
241	0xbf65741b	-0.8963029
242	0x3c8496ce	0.01618519
243	0x3f1205bf	0.5704002
244	0x3e3e76be	0.18599984
245	0xbb0784d7	-0.0020678544
246	0xbcbf0834	-0.023319341
247	0xbe206366	-0.15662917
248	0xbef643c6	-0.48098582
249	0x3e30f5cc	0.17281264
250	0x3e91f634	0.2850815
251	0x3dec0bd1	0.11525691
252	0x3e033371	0.12812592
253	0x3e1512b8	0.14557922
254	0x3ddc47b9	0.107558675
255	0x3ed24dbc	0.41074932

fc2.bias f4 [64]
0	0x3de457ba	0.11149545
1	0x3d50f675	0.05101629
2	0x3d867035	0.065643705
3	0x3d2dc318	0.042422384
4	0x3d4018e9	0.046898756
5	0x3cdca23f	0.026932834
6	0x3dd82b1e	0.10555099
7	0x3eef69e2	0.4676047
8	0xbc628fbc	-0.013828214
9	0xbea03d85	-0.31296936
10	0x3eba745c	0.364169
11	0x3e3d1f3d	0.18468948
12	0x3e3ef240	0.18647099
13	0xbe58b23e	-0.21161744
14	0xbd401513	-0.046895098
15	0x3ec1eb08	0.37874627
16	0x3e41bc74	0.18919545
17	0x3df471c1	0.11935759
18	0x3daa165c	0.08305046
19	0xbdf75e38	-0.12078518
20	0x3e9fad81	0.3118706
21	0x3ead9864	0.33905327
22	0x3dce390c	0.100694746
23	0x3ea1257b	0.31473908
24	0x3e44d3cd	0.1922142
25	0xbd412803	-0.0471573
26	0x3e80a1bd	0.25123397
27	0xbea6400d	-0.32470742
28	0xbe2b82f1	-0.16749169
29	0xbe135f4b	-0.1439182
30	0x3de491f2	0.11160649
31	0xbd74a36e	-0.05972617
32	0x3e6069fa	0.21915427
33	0x3c40e3ee	0.011773093
34	0x3c8320cc	0.01600685
35	0xbdbe3c64	-0.09288862
36	0x3e981ace	0.2970795
37	0xbe07e669	-0.13271488
38	0xbece0bb2	-0.40243298
39	0x3f062685	0.52402526
40	0x3d9276c5	0.0715156
41	0x3d56b716	0.052420698
42	0xbe8f6ea4	-0.280141
43	0x3dc46738	0.0959
44	0x3e2028b2	0.15640524
45	0xbe2d4031	-0.16919018
46	0xbe4be1b1	-0.19910313
47	0x3e971b96	0.29513234
48	0x3e9dc059	0.30810812
49	0x3ebae624	0.36503708
50	0x3eaa03be	0.3320598
51	0x3d525608	0.051351577
52	0xbea5ff5f	-0.32421395
53	0x3e18ca67	0.1492096
54	0x3e84261c	0.25810325
55	0x3ea4cf39	0.32189348
56	0x3f00966b	0.5022952
57	0xbe90a99a	-0.28254396
58	0xbe7ec794	-0.2488082
59	0xbe66315f	-0.22479771
60	0xbd96bfca	-0.073607996
61	0xbd8a0a24	-0.067402154
62	0x3e04a57d	0.12953754
63	0xbe1a4157	-0.15063988

fc3.weight f4 [64, 64]
0	0x3d14da67	0.036341097
1	0x3d23effd	0.040023793
2	0xbe07d77c	-0.13265795
3	0xbe06f0ba	-0.13177767
4	0xbdedc077	-0.116089754
5	0xbd8fac28	-0.07015258
6	0x3d0ee719	0.03488836
7	0xbd8164d6	-0.06318061
8	0xbd8fa549	-0.070139475
9	0x3da8bc63	0.08239057
10	0x3cee3efa	0.029082764
11	0xbdc00dea	-0.09377654
12	0xbdd528c6	-0.104081675
13	0xbd0c1730	-0.0342018
14	0xbb4ab236	-0.0030928976
15	0xbbda4115	-0.0066605904
16	0x3da649f0	0.08119571
17	0xbe060f03	-0.13091664
18	0xbdd46656	-0.103710815
19	0x3d0f9944	0.035058275
20	0xbe1cceea	-0.15313306
21	0xbccaac0c	-0.024740241
22	0x3db27b4e	0.08714925
23	0xbdb54711	-0.088514455
24	0xbd421fca	-0.047393598
25	0x3c1012b4	0.008793522
26	0xbdbec39b	-0.093146525
27	0x3dce94d2	0.10086979
28	0xbddfb18f	-0.109225385
29	0x3d7f981c	0.062400922
30	0xbc995ba1	-0.01872045
31	0x3d6dc820	0.058052182
32	0xbd33eaa8	-0.043924958
33	0xbe116806	-0.14199838
34	0xbe023c5e	-0.12718341
35	0xbd0397f4	-0.032127336
36	0x3db98bdf	0.090598814
37	0x3c5cbe1f	0.013473063
38	0x3db276d1	0.08714069
39	0xbce23bc3	-0.027616387
40	0x3c892f70	0.016746253
41	0xbd65096d	-0.055917192
42	0xbdbc56e1	-0.09196258
43	0x3d8ad9db	0.06779834
44	0xbba40001	-0.0050048833
45	0xbe0fc5ed	-0.14040346
46	0x3dc39a4e	0.09550916
47	0x3dfdf577	0.12400334
48	0x3c86849e	0.016420659
49	0xbe02b8de	-0.12765834
50	0x3d7d81ba	0.061891295
51	0xbc440ce4	-0.011965964
52	0x3db608bf	0.08888387
53	0xbc31ed7e	-0.010859845
54	0xbc58a913	-0.013223904
55	0xbe27186f	-0.16317914
56	0xbdbe5247	-0.09293037
57	0xbd1e85c2	-0.03870178
58	0x3cfe0f33	0.031013107
59	0x3cc8ca51	0.024510534
60	0xbdb55574	-0.088541895
61	0xbccd3068	-0.025047496
62	0x3da20467	0.07910996
63	0xbcf944af	-0.030428259
64	0xbf35b05b	-0.7097222
65	0x3e7f1ff5	0.24914534
66	0x3d532b05	0.0515547
67	0x3e45a6b1	0.19301869
68	0xbee2ec0f	-0.44320723
69	0x3e3c4fe3	0.1838985
70	0x3d183d50	0.037167847
71	0x3e69aa09	0.2281877
72	0x3e6a03b3	0.22852974
73	0x3ecdffa4	0.402341
74	0xbf818b7a	-1.012069
75	0x3e22b9c9	0.15891184
76	0x3bbfae4f	0.0058496366
77	0x3d849214	0.06473175
78	0x3e7cd778	0.2469157
79	0x3e5e40a7	0.2170435
80	0x3e573142	0.21014884
81	0x3cc5f0a9	0.024162607
82	0x3d902364	0.07038
83	0x3ed5669d	0.4167985
84	0x3e870e94	0.2637831
85	0xbf01f305	-0.50761443
86	0x3e6c6589	0.23085608
87	0x3e950ed9	0.2911289
88	0xbed8e2da	-0.42360574
89	0x3ca2df50	0.019881874
90	0x3ef111bc	0.47083843
91	0x3eb4a4ca	0.35281974
92	0x3f798b24	0.97477937
93	0x3cc958cd	0.024578476
94	0x3a7d64e1	0.0009666216
95	0x3e04923a	0.12946406
96	0x3e7ca7b9	0.24673356
97	0x3e55ed0b	0.20891206
98	0xbe00b384	-0.1256848
99	0xbf3d5fb6	-0.7397417
100	0xbdf3e152	-0.11908211
101	0x3d878a4d	0.06618176
102	0x3f05e8db	0.52308434
103	0x3eafae16	0.34312505
104	0x3e1b38e3	0.1515842
105	0x3e7b59f9	0.2454604
106	0x3ea78fae	0.32726806
107	0xbc423b18	-0.011854909
108	0x3d97cd5a	0.074122146
109	0x3f85282c	1.0402884
110	0x3f5477db	0.82995385
111	0x3ed28cc1	0.41123012
112	0xbef7035d	-0.48244753
113	0x3ebedfd5	0.37280145
114	0xbcce9605	-0.02521802
115	0x3d92023c	0.071293324
116	0x3e9a1fcd	0.30102387
117	0x3d195ee6	0.037444018
118	0xbf3186b2	-0.69346154
119	0x3caef438	0.021356687
120	0x3df4fe75	0.11962596
121	0xbdc368fd	-0.09541509
122	0x3d331dd0	0.043729603
123	0x3da594f2	0.0808505
124	0xbf2da91f	-0.67836183
125	0xbd4d754d	-0.050160695
126	0xbc9da0db	-0.01924174
127	0x3f3d1e94	0.73874784
128	0xbfb33a56	-1.4002178
129	0x3e5c8f7c	0.2153911
130	0x3f27b472	0.6550971
131	0x3e83262e	0.25615066
132	0xbf8bbf7d	-1.0917813
133	0x3e26177f	0.162199
134	0x3de641e4	0.112430364
135	0x3df12ef6	0.11776535
136	0xbd9f572d	-0.07780299
137	0x3ee056e7	0.438163
138	0xc011715d	-2.2725441
139	0x3e3570cb	0.17718808
140	0xbde44ab3	-0.1114706
141	0xbe010264	-0.12598568
142	0x3e3f4d00	0.18681717
143	0xbd8133dc	-0.063087195
144	0x3e1d471d	0.15359159
145	0x3e27d775	0.16390784
146	0x3e3b0f9f	0.18267678
147	0x3ed34c85	0.41269317
148	0x3dcabac7	0.09898906
149	0xbfd24d1e	-1.6429784
150	0x3e6d4da3	0.23174147
151	0x3df7c415	0.120979466
152	0xbf65c398	-0.8975158
153	0x3d411bec	0.04714577
154	0x3edd1908	0.4318316
155	0x3e8805de	0.26566976
156	0x3f44430a	0.76664793
157	0x3ef1d18b	0.4723018
158	0xbcea3631	-0.028590294
159	0x3eb8b9ba	0.36079198
160	0x3ea6586a	0.3248933
161	0x3dad5718	0.084638774
162	0x3e8daa62	0.27669054
163	0xbf8027e7	-1.0012177
164	0xbdb3181a	-0.087448314
165	0x3e4e63a1	0.20155193
166	0x3ef0d232	0.47035366
167	0x3ea8cc05	0.32968155
168	0x3ed6fcd5	0.4198977
169	0x3e85f40e	0.2616276
170	0x3eb5e4a1	0.35525993
171	0x3e6212f9	0.2207755
172	0x3d3a7808	0.045524627
173	0x3f70976b	0.93981045
174	0x3f14d2c0	0.5813408
175	0x3eb450d8	0.3521793
176	0xbf055c5b	-0.5209405
177	0xbdc3bc8e	-0.09557448
178	0xbd2b49dc	-0.041818485
179	0x3eda0e66	0.4258911
180	0x3e1ec58a	0.15505043
181	0xbd52cb1f	-0.051463243
182	0xbfa93fcc	-1.3222594
183	0x3dd0889c	0.10182306
184	0x3e7731c6	0.24140081
185	0x3f0ce224	0.55032563
186	0x3da66f7f	0.08126735
187	0x3d609165	0.05482616
188	0xbf12c64b	-0.5733382
189	0xbd8ae874	-0.06782618
190	0x3db1eb6f	0.086874835
191	0x3e83bdf2	0.25730854
192	0x3f7873c1	0.97051626
193	0x3bd3a0b4	0.0064583663
194	0x3f428b6a	0.7599398
195	0x3cb09dc5	0.021559605
196	0x3f1d27e2	0.6138898
197	0xbe0fdd3e	-0.14049241
198	0xbc4842e7	-0.012222982
199	0x3e1a9a87	0.1509801
200	0x3c357a98	0.011076592
201	0xbf34d3b1	-0.70635515
202	0x3fddc30e	1.7325151
203	0x3e0d7c9d	0.13817067
204	0x3f9eb09c	1.2397647
205	0xbc971685	-0.018443355
206	0xbde6f394	-0.112769276
207	0x3dff93ad	0.12479339
208	0xbc41eb22	-0.011835845
209	0xbe7210a1	-0.23639156
210	0x3e386567	0.18007432
211	0xbec44e87	-0.38341162
212	0x3e970c58	0.29501605
213	0x3f83616f	1.0264109
214	0x3dd15c4b	0.102226816
215	0x3e77222d	0.24134131
216	0x3eccac23	0.3997508
217	0x3dcc04ac	0.099618286
218	0xbf1c4e64	-0.61057115
219	0xbf8644b5	-1.0489718
220	0xbf419087	-0.75611156
221	0xbf88003a	-1.0625069
222	0x3e1bcaec	0.15214127
223	0x3e0168fc	0.12637705
224	0x3e0b5508	0.13606656
225	0xbd8a0acf	-0.06740343
226	0x3f0e4839	0.55578953
227	0x3ec44228	0.38331723
228	0x3e51f21a	0.2050251
229	0x3e05851b	0.13039057
230	0xbf623a80	-0.88370514
231	0x3eace55c	0.33768737
232	0x3d8e4285	0.06946281
233	0x3e17b554	0.14815265
234	0xbee0b153	-0.43885288
235	0x3e8e6ef1	0.27819017
236	0x3eac6635	0.33671728
237	0xbf8eaebf	-1.1147078
238	0xbf487e82	-0.78318036
239	0xbf0159c4	-0.50527596
240	0x3f3cba11	0.73721415
241	0x3ddfb331	0.1092285
242	0x3f67730f	0.9040994
243	0x3cc4e8c8	0.02403678
244	0xbec6eece	-0.3885407
245	0x3ec1cd9b	0.37852177
246	0x3f183b4f	0.594655
247	0x3e001c47	0.12510787
248	0x3eaff96e	0.34369987
249	0x3f4ddf63	0.80418986
250	0x3c9cf183	0.01915813
251	0xbd95aa71	-0.073079
252	0x3ef1ae95	0.47203508
253	0x3deabd4a	0.11461885
254	0x3eabaa01	0.3352814
255	0xbf8459b1	-1.0339872

fc3.bias f4 [64]
0	0xbd92015a	-0.07129164
1	0x3e6f5bd6	0.23374876
2	0x3d6ee98a	0.05832819
3	0x3ec4c32a	0.38430148
4	0x3eb83d49	0.35984257
5	0xbd72719e	-0.059190385
6	0x3e4e5fd7	0.20153747
7	0x3e32d744	0.1746493
8	0x3dd24d1f	0.10268616
9	0x3ec5b6fc	0.38616168
10	0xbe6b5a85	-0.22983749
11	0xbeae7242	-0.34071547
12	0x3e512174	0.20422918
13	0xbe975142	-0.29554182
14	0xbdf5a86f	-0.11995017
15	0xbe0ddf49	-0.13854708
16	0x3e1c705a	0.15277234
17	0x3ed7be92	0.4213758
18	0x3e42a998	0.19010007
19	0x3f21aa00	0.63150024
20	0x3e2d70f9	0.16937627
21	0x3e8a9499	0.27066496
22	0xbddb0684	-0.10694602
23	0x3f0786b9	0.52939945
24	0x3f13189a	0.57459414
25	0x3e40185f	0.18759297
26	0x3c739404	0.014866833
27	0x3c4887c6	0.012239402
28	0xbdf25212	-0.1183206
29	0x3e8db20d	0.27674904
30	0xbea3facf	-0.3202729
31	0xbe27557d	-0.16341205
32	0x3b5e576c	0.003392662
33	0x3e8acbd7	0.27108642
34	0x3e88b5cc	0.267012
35	0x3ec92639	0.39286974
36	0x3e90fcad	0.28317776
37	0xbe0fa429	-0.14027466
38	0x3ef11303	0.47084817
39	0x3d1ae6dd	0.037817825
40	0x3ece84d5	0.40335718
41	0x3a4c46a6	0.000779251
42	0x3ec4bb40	0.3842411
43	0x3e93d2a3	0.2887164
44	0xbee0e6a4	-0.43925965
45	0x3bc34405	0.0059590363
46	0xbd3c0140	-0.04589963
47	0xbe49ac96	-0.19694743
48	0x3e8126ae	0.25224823
49	0xbdd79476	-0.105263636
50	0xbda52086	-0.08062844
51	0xbc1337b1	-0.008985446
52	0x3efd1924	0.49433243
53	0x3d8b6b60	0.068075895
54	0x3e3f92fa	0.18708411
55	0xbd52af4f	-0.05143672
56	0xbdaa96ab	-0.08329519
57	0xbdb78959	-0.08961744
58	0x3f340bb4	0.7033036
59	0x3ea8c05c	0.3295926
60	0xbe0453a7	-0.12922536
61	0xbee06ed9	-0.4383457
62	0x3de34a8d	0.11098204
63	0x3d77cf0e	0.060500197

fc4.weight f4 [4, 64]
0	0x3ddfe5b4	0.10932484
1	0xbe8df718	-0.2772758
2	0xbf1b4aa9	-0.606608
3	0x3f860f66	1.0473449
4	0xbe8509b4	-0.25983965
5	0x3d73d668	0.059530646
6	0xbe867bee	-0.26266426
7	0xbe13468e	-0.14382383
8	0xbec07891	-0.37591985
9	0xbe362f0c	-0.17791384
10	0x3fbfcf13	1.4985069
11	0x3d0f220b	0.034944575
12	0xbef3a86f	-0.47589442
13	0x402db347	2.7140672
14	0x3f8dd428	1.108037
15	0x3e9d3b45	0.30709282
16	0x3fa5bf78	1.2949057
17	0xbead2137	-0.33814403
18	0xbe81c0cf	-0.25342414
19	0x3f749636	0.95541704
20	0xbebe2c37	-0.37143108
21	0x3f207812	0.6268321
22	0xbed45535	-0.41471258
23	0xbf0bcb92	-0.546075
24	0xbf208ddc	-0.6271646
25	0xbe2b82c6	-0.16749105
26	0x3f4ed57b	0.80794495
27	0x4007e574	2.1233797
28	0x3d536b6c	0.051616117
29	0xbe8f8e3e	-0.2803821
30	0xbb369763	-0.002786123
31	0xbeffabe9	-0.49935845
32	0xbe295c3b	-0.1653909
33	0xbea08d0c	-0.3135761
34	0xbe279074	-0.16363698
35	0xbeb1a5e6	-0.34696883
36	0x3f982756	1.1887004
37	0xbc555f40	-0.013023198
38	0x3f3b2c58	0.7311454
39	0xbedfb7d8	-0.4369495
40	0xbe63fbff	-0.22264098
41	0x4009cac1	2.153
42	0xbd66ac43	-0.056316625
43	0xbe38e6cd	-0.18056794
44	0xbe9d05d1	-0.306685
45	0x3d92a485	0.07160286
46	0xbd5b3e43	-0.053526174
47	0xbf107d80	-0.564415
48	0xbeaf71fe	-0.34266657
49	0x3da4ec56	0.0805289
50	0x3dc0fb3b	0.094229184
51	0x3d84dfb2	0.06487979
52	0xbe1e92df	-0.15485714
53	0x3d556519	0.052098367
54	0xbe7eb63f	-0.24874209
55	0xbf074116	-0.5283369
56	0x3dfbcaa8	0.12294513
57	0x3d1ec25e	0.03875958
58	0xbf0a06da	-0.53916705
59	0xbe99553c	-0.2994784
60	0xbc90f2c8	-0.017693892
61	0xbe855695	-0.2604262
62	0xbf56b0bc	-0.83863425
63	0x3d99f022	0.07516505
64	0xbca73df9	-0.020415293
65	0xbe3316bc	-0.17489141
66	0xbefcce12	-0.4937597
67	0x3f2060bb	0.626476
68	0xbe974681	-0.29545978
69	0xbda5453d	-0.08069847
70	0xbe854796	-0.26031178
71	0xbeb85578	-0.36002707
72	0xbeac55cd	-0.3365921
73	0xbeaf004f	-0.34179923
74	0x3fd5edc4	1.6713185
75	0x3e873b82	0.26412588
76	0xbd5f4fb7	-0.05451938
77	0x40212d4a	2.5183892
78	0x3fcaa2d8	1.5830946
79	0x3e80d937	0.25165722
80	0x3ff4731a	1.9097626
81	0xbec04c08	-0.37558007
82	0xbe1efe73	-0.15526752
83	0x3fb51183	1.4145969
84	0xbf172b8d	-0.5905083
85	0x3efa026e	0.4882998
86	0xbf07c805	-0.5303958
87	0xbeb083ed	-0.3447565
88	0xbf15786b	-0.5838687
89	0xbeca9ad3	-0.39571247
90	0x3ed30245	0.4121267
91	0x3fdbf711	1.7184774
92	0x3daf7a6f	0.08568274
93	0x3e1c5bb7	0.15269361
94	0xbf5dccc6	-0.86640584
95	0xbf3092e0	-0.68974113
96	0xbe71a1a7	-0.23596822
97	0xbcbafc27	-0.022825314
98	0xbe903aee	-0.2816996
99	0xbed26bcb	-0.41097865
100	0x3fa68b4c	1.301126
101	0x3d9dd3a3	0.07706382
102	0x3f14b06f	0.58081716
103	0xbdfca73c	-0.12336585
104	0xbebbcaf7	-0.36678287
105	0x40040546	2.0628219
106	0xbec243fb	-0.3794249
107	0xbe762604	-0.2403794
108	0xbf086a4c	-0.53287196
109	0xbd61e679	-0.055151436
110	0xbd96f632	-0.07371177
111	0xbe134b1b	-0.14384119
112	0xbd6303aa	-0.055423416
113	0x3d243530	0.040089786
114	0xbd4c2029	-0.049835358
115	0xbdb3836d	-0.08765302
116	0xbd9aa3c4	-0.07550767
117	0x3d4c515a	0.04988227
118	0xbe21150d	-0.15730686
119	0xbee8d4d2	-0.4547487
120	0xbb7da0b0	-0.0038700514
121	0x3d93fdab	0.07226118
122	0xbf4e63fc	-0.80621314
123	0xbdbb5559	-0.09147138
124	0xbd965c74	-0.07341853
125	0xbf39fa4d	-0.72647554
126	0xbedf96c0	-0.436697
127	0x3c4dbc52	0.012557106
128	0x3dad73d8	0.08469361
129	0xbe84d1ac	-0.25941217
130	0xbee97471	-0.4559665
131	0x3f4e1eb3	0.80515593
132	0xbe548300	-0.20753098
133	0x3d51a3d0	0.051181614
134	0xbe8d34b0	-0.2757926
135	0xbf10a195	-0.56496555
136	0xbefe4d78	-0.4966848
137	0xbe82ee51	-0.25572446
138	0x3fc6d164	1.5532651
139	0xbee295b7	-0.44254848
140	0xbeb59757	-0.35467026
141	0x4030f317	2.764837
142	0xbf839182	-1.027878
143	0xbfea2bb5	-1.8294588
144	0x3fa94e8d	1.3227097
145	0xbe4af749	-0.19820894
146	0xbebdcd1a	-0.37070543
147	0x3f90c4e0	1.1310081
148	0xbe299eb0	-0.1656444
149	0x3f83df0d	1.0302445
150	0xbe80edb0	-0.2518134
151	0x3e855dbd	0.2604808
152	0x3e8e6fdd	0.2781972
153	0xbf14cc31	-0.5812407
154	0x3f94dbf5	1.1629626
155	0x3f9e0051	1.2343847
156	0x3db8bb14	0.09020057
157	0x3d9975e1	0.07493187
158	0xbe647171	-0.223089
159	0xbf3456b6	-0.7044481
160	0xbea48358	-0.32131457
161	0xbe8efd80	-0.2792778
162	0xbe9424d1	-0.2893434
163	0xbe3c33fe	-0.18379208
164	0x3fe70051	1.8046972
165	0x3dbe2440	0.09284258
166	0x3f9598fd	1.1687313
167	0xbec0977b	-0.3761557
168	0xbcddebc1	-0.027089955
169	0x400aed08	2.1707172
170	0x3e89591e	0.26825804
171	0xbe730bf0	-0.23735023
172	0xbfbb4101	-1.4629213
173	0x3dbb3bbf	0.09142255
174	0xbcb0b044	-0.021568425
175	0xbf2acc51	-0.6671801
176	0xbe76542d	-0.24055548
177	0xbdc8c6d2	-0.09803547
178	0xbd1847e4	-0.037177935
179	0xbd3260cd	-0.043549348
180	0xbd0662f6	-0.03280922
181	0x3dead39c	0.114661425
182	0xbe945f8c	-0.28979146
183	0xbf2bc72a	-0.67100775
184	0xbdea896b	-0.11451992
185	0xbdb3f54c	-0.08787021
186	0x3ea6e7b5	0.32598653
187	0xbe99ffca	-0.30077964
188	0x3d91f821	0.07127405
189	0xbf68ee8e	-0.90989006
190	0xbe192ed7	-0.14959274
191	0x3ce6aba0	0.028158009
192	0x3d638fba	0.05555699
193	0xbe93ec22	-0.28891093
194	0xbf08ac50	-0.5338793
195	0x3fbb5fb6	1.4638584
196	0xbe57ee4f	-0.21087001
197	0xbdce499c	-0.100726336
198	0xbdd975b5	-0.10618154
199	0xbe84b4f4	-0.25919306
200	0xbeb214b5	-0.34781423
201	0xbe834050	-0.25635004
202	0x3fa9e973	1.3274368
203	0x3d16e715	0.03684147
204	0xbf1410c1	-0.57838064
205	0x4038f79c	2.8901129
206	0x3ec02d49	0.3753455
207	0x3ee9192b	0.45527014
208	0x3f55c99d	0.8351076
209	0xbe617005	-0.22015388
210	0xbefa7a2a	-0.4892133
211	0x3f6c2214	0.922395
212	0xbe79c753	-0.24392442
213	0x3f4ef73c	0.80846
214	0xbef85062	-0.48498827
215	0xbea963a5	-0.33083835
216	0xbf62cdfe	-0.8859557
217	0xbe98dd6e	-0.29856437
218	0x3f605f8c	0.8764579
219	0x401fd3da	2.4973054
220	0x3b04e8f4	0.0020280452
221	0xbefa7028	-0.48913693
222	0xbee448ad	-0.44586697
223	0xbe999417	-0.29995796
224	0xbe2f15e6	-0.17098197
225	0xbebea93c	-0.3723849
226	0xbe8cc858	-0.274966
227	0xbe0f2c90	-0.13981843
228	0x3f6adcdd	0.9174326
229	0x3de0396b	0.109484516
230	0x3e867d62	0.26267534
231	0xbec69fec	-0.38793886
232	0xbdcff89c	-0.1015484
233	0x400b4b00	2.1764526
234	0xbc1efb21	-0.0097034285
235	0xbe72ee44	-0.23723704
236	0xbeca7fc9	-0.39550617
237	0x3d13797b	0.036004525
238	0xbd0d345a	-0.034473754
239	0xbedfed1e	-0.43735594
240	0xbecddbe5	-0.4020683
241	0xbda45c81	-0.08025456
242	0xbd23c072	-0.039978452
243	0x3dade6eb	0.0849131
244	0xbede33d6	-0.43398923
245	0xbd9bde05	-0.07610706
246	0xbe9e66ab	-0.30937704
247	0xbf0cb0dc	-0.54957366
248	0xbd97d9b2	-0.07414569
249	0x3c56e9f0	0.0131172985
250	0x3e1ecd6c	0.1550805
251	0xbe9aa4c9	-0.30203846
252	0xbd8d3ef2	-0.068967715
253	0xbe617a8f	-0.22019409
254	0xbec16333	-0.37770995
255	0x3dd1253d	0.10212181

fc4.bias f4 [4]
0	0xbc8fc62d	-0.017550552
1	0xbd188033	-0.037231635
2	0x3ebeadfd	0.37242118
3	0xbe9ab1da	-0.30213815
