ass2/saved_model/lunar_checkpoint_wind/ckpt.pth (torch, 29519 bytes, 8 tensors)

fc1.weight f4 [32, 8]
00000000: 862e 653e 475d 7ebe ea81 fbbe 6d6a 7bbe
00000010: 9995 3e3f e427 543e 008f 693f 3d79 42bc
00000020: 92f0 89be 3d49 4dbe a99f e33b b3f4 b2bd
00000030: 1c7f bbbf 64ef 4e3e e707 623f 8fea 443d
00000040: 104e e33e 8eb9 1cbe 4f85 e23f c5fa 2ebe
00000050: 1698 5cbe 1d55 423f ddd0 5b3d 1c8c 913e
00000060: 2f07 78be 2223 723e bd6a d03e 3429 aebf
00000070: 7724 87be 94ee dabd 079e 6e3e e291 f0be
00000080: 486e aa3e a948 9e3e d8e6 303f ed67 453f
00000090: ef78 85bf 4e23 3dbf c3d7 e4be 72f0 12be
000000a0: 2a23 43bd ef22 2f3e 4ce5 8fbe 9ba0 a5be
000000b0: 3e56 3c3f 5624 843f 7d26 c1bf 0e41 87be
000000c0: 0741 12be d124 dd3d 6402 83be be1f 913e
000000d0: aea8 06bf ecc9 4cbf c7f8 30bf 9b2b 563f
000000e0: 904d 953e 8ea1 973e 4bfe 7ebe 711d 52be
000000f0: 9ca0 72be f37c ae3f d4ce 9f3e 8e24 36be
00000100: 4a3c 44bf 7e8b d9be 627d 833c db35 43bf
00000110: ed88 513f 25a8 463f d496 e53e 8630 57bf
00000120: c48b 82bf 3474 453e 3992 f03e 41c0 dabc
00000130: 2d7e 0a3e a2f4 1fbe 0e7e 043f c957 003e
00000140: 892d b83e c4a3 a9bd 8d88 9abe 65df 8a3e
00000150: e2d4 d6bc 3f4c 49bf 9b79 87bf c8c6 473e
00000160: a58d 00bf 88ba 95bf cf06 023f 0c77 3c3f
00000170: bc3c 03be 35d4 4fbe fd6c 103f a9b3 a33e
00000180: 3a91 a93e fc07 953e e68e 693f ff26 dabe
00000190: ca5e 923f 74f2 9ebe 31b8 0ebe 8ca4 e23e
000001a0: 905e 8fbf 6e8d 04be 41c5 f3be 45aa 99be
000001b0: 02b1 6b3f c11b 683f ed0e 3dbe 9968 47be
000001c0: c169 f5be f017 f93e cf63 a33f 2e2c 863f
000001d0: 0660 a6be e23a bc3d 78a6 e3bc 14c4 2a3c
000001e0: a7fc 9abd 7a80 01be c175 9dbf f5f3 883f
000001f0: 37a4 8d3f fb20 0d3e d622 033f f633 0bbf
00000200: 5659 003f b31f b3be 649a cf3d cb3c 883e
00000210: d8b2 09be 4f63 713f 8bc9 20bf 739a 83bd
00000220: b37b 94bc 732e 8ebe cdc7 df3e e1b9 dfbd
00000230: e83d ab3c bca7 003f 9573 48be 6d27 18bf
00000240: 33ae e8be ea75 03be d609 cd3c 4e82 a4be
00000250: 78b1 9dbd c278 2c3f 20ea 223f 5cab ee3e
00000260: d9ec 14bf c842 2fbe 070c 653f 4a13 063e
00000270: c357 5b3e 4f81 2e3f 408d 513e 31a3 aabe
00000280: fe8c 353e 636a a63f e0a0 e93d 1a94 0ebe
00000290: 4f2b 2f3e a154 bb3e 6316 373c ae77 dabe
000002a0: a28d a7be 0cbc c73c a3cf be3e 5183 a23d
000002b0: e77c 243e bbe3 9e3f e8a8 90bf 1278 39bf
000002c0: 49be 0fbf bab7 e53e 3c5c 713e e679 8c3e
000002d0: 3f9d 003f 2d92 fdbd 91f8 09be 9f26 073e
000002e0: 0e4c 9bbe 623e 7d3e 524f a1bc 43e0 2cbe
000002f0: 25b6 95bf 5297 69be 50e4 b1bf a3ac 203f
00000300: 5d92 a7be f446 12be 0ca9 c4bd 8ac1 e5bd
00000310: 767b 9e3e 9707 4cbf 1293 94bf 57ea 08bf
00000320: 9eb2 943f ed6c 623e 16a9 fb3e b4c2 78bd
00000330: 4e6b 3abf ef5b 4c3e e240 d03e 882c 6bbd
00000340: 827c 093f 2432 233d 1f37 2fbf 1c2d f7bf
00000350: d16a db3e f5fa febc 5d5f e23d 6316 89bd
00000360: af14 bbbd 4d6e 7cbe f631 5a3f ad63 b93e
00000370: 1942 99bf 8ca0 9cbe e801 b63e b4fd 0e3f
00000380: 481c cfbf 7e9a b53d d74a abbd 4959 8bbe
00000390: 0d57 cebe c4ed 813d e8e5 18bd 6204 bbbe
000003a0: 59e9 013e f492 30be e883 1c3f 9ed3 9dbf
000003b0: 69e0 1dbf e4b2 3cbf da22 02bf 99db d3bc
000003c0: 0ed3 3ebf 7aee 063e 07e2 78bf 68db 73bf
000003d0: f263 7c3e ea97 0cbf 551c 28bc 6a6d 63be
000003e0: 88ed f43c ea7c 613e 7a33 ffbd 95b8 133f
000003f0: 33ca cabf f00a 20bf 09cb 27be bba9 89bd
0.22381029 -0.2484027 -0.49122554 -0.24552317 0.7444702 0.20718342 0.91233826 -0.011869726
-0.26941353 -0.2004747 0.006946523 -0.08738079 -1.4648166 0.20208508 0.8829331 0.048075255
0.44395494 -0.15305158 1.7696933 -0.17087848 -0.21542391 0.7591112 0.053665984 0.28427207
-0.2422149 0.23646215 0.40706435 -1.3606324 -0.26395008 -0.106900364 0.2330247 -0.469863
0.33287263 0.3091481 0.6910224 0.77111703 -1.0427531 -0.73881996 -0.44695863 -0.14349535
-0.047640957 0.1710317 -0.28104627 -0.32349095 0.73569095 1.0323589 -1.5089871 -0.2641682
-0.14282618 0.10798038 -0.2558776 0.2834453 -0.52601135 -0.7999561 -0.69129604 0.83660287
0.29160738 0.29615444 -0.24901693 -0.20519044 -0.2369408 1.3631881 0.31212485 -0.17787382
-0.76654494 -0.42489237 0.016050998 -0.7625405 0.8184956 0.7760032 0.44841635 -0.84058416
-1.0198903 0.19282609 0.4698656 -0.026703002 0.13524695 -0.15620664 0.51754844 0.12533487
0.3597224 -0.08283189 -0.30182305 0.27123562 -0.026224557 -0.7863197 -1.0583986 0.19509423
-0.5021613 -1.169755 0.5079164 0.7361915 -0.12816137 -0.20295794 0.564163 0.31973007
0.33118612 0.29107654 0.9123367 -0.42607877 1.1435177 -0.31044352 -0.13937451 0.44266164
-1.1200733 -0.12944576 -0.4761143 -0.30012718 0.9206697 0.9066735 -0.18462725 -0.19473495
-0.47932246 0.48651075 1.2764834 1.0482233 -0.32495135 0.091909185 -0.02778934 0.010422725
-0.07567721 -0.12646666 -1.2301561 1.069945 1.1065739 0.13782112 0.5122503 -0.5437616
0.50136316 -0.34985122 0.101368695 0.2660888 -0.1344713 0.9429216 -0.6280753 -0.06425943
-0.01812539 -0.27769813 0.43707123 -0.109241255 0.020903543 0.5025594 -0.19575341 -0.5943516
-0.45445403 -0.1283795 0.025029104 -0.32130665 -0.07699865 0.6737176 0.63638496 0.46615112
-0.581739 -0.17115319 0.8947148 0.13093296 0.21420197 0.6816606 0.20464039 -0.3332763
0.17729566 1.3001217 0.114076376 -0.13923684 0.17106365 0.36588004 0.011174771 -0.42669433
-0.32725245 0.02438166 0.3726779 0.07935203 0.16063271 1.2413248 -1.1301546 -0.7244884
-0.5614973 0.44866735 0.23570341 0.2743675 0.5023994 -0.123813964 -0.13473727 0.13198327
-0.30331463 0.24730828 -0.019691143 -0.16882424 -1.1696211 -0.2281163 -1.38978 0.6276342
-0.32728854 -0.14284879 -0.09602556 -0.11218555 0.30953568 -0.7969908 -1.1607382 -0.53482574
1.161701 0.22111864 0.4915244 -0.06073256 -0.72819984 0.19956945 0.40674502 -0.057415515
0.5370561 0.03984274 -0.68443483 -1.9310641 0.42854932 -0.031125525 0.11053345 -0.06693723
-0.091348045 -0.24651451 0.85232484 0.3620886 -1.1973296 -0.30591238 0.3554833 0.5585587
-1.6180506 0.08867358 -0.08363884 -0.27216557 -0.4030079 0.06344178 -0.03732863 -0.3652678
0.12686671 -0.17243558 0.6113877 -1.2330205 -0.6167055 -0.73710465 -0.5083443 -0.025861548
-0.74540794 0.13176909 -0.9721989 -0.9525666 0.24647501 -0.549193 -0.010260661 -0.22209707
0.02989842 0.22020307 -0.1246099 0.57703525 -1.5842956 -0.6251669 -0.16386046 -0.06721827

fc1.bias f4 [32]
00000000: 4152 0abf e1b2 1c3e b9b4 5abe 163e b93e
00000010: ffce 4f3e 75d2 88be 7f99 33be 6e17 1f3f
00000020: 6dff 323d ecb4 3b3f 873b ca3e 1621 7d3f
00000030: dc4d 5bbe 8829 3ebe 26f0 b0be 826c 213f
00000040: a183 0c3f 61c8 443f d700 93be 58ab 963e
00000050: a0f8 2f3f 98a8 193e b603 3abe 786d 16be
00000060: 91e8 873e 69c7 51be ba6b ffb9 4d9c 80bd
00000070: c0bd 383f a058 123e 3ebe aa3e 6b84 95be
-0.5403176 0.15302612 -0.21358003 0.3618018 0.20293806 -0.26723066 -0.17539023 0.62145126
0.043700624 0.7332294 0.3949854 0.9887861 -0.2141642 -0.1857053 -0.3455822 0.63056195
0.5488835 0.76868254 -0.28711578 0.294276 0.68738747 0.1500572 -0.18165478 -0.14690197
0.26544622 -0.20486225 -0.00048717653 -0.06279812 0.72164536 0.1429162 0.33348268 -0.2920259

fc2.weight f4 [64, 32]
00000000: 9806 2bbf bf54 183c 6874 8d3f f307 673e
00000010: ea01 2bbf 94c9 b43d 0c8a a03d 7620 073f
00000020: 2e09 a13e 5ee7 f6bd 9c38 c73f 6c23 10bf
00000030: 18a2 34be 3882 af3d e269 963d 208b d03e
00000040: 3501 103f 970b 843e 1b64 623e 0a22 2c3f
00000050: 3b1f 9b3c ea70 ca3e cb04 38bf 1542 273f
00000060: 2c62 263f 1f05 d9be 3ce6 2c3e 6cb3 6abe
00000070: def5 173d 0b3c 81bf 6e02 0fbe 3779 9abf
00000080: 4bd5 34bf deb2 a8bd 2b5e 92be 2341 87be
00000090: e917 9b3e c4e9 c9be ada7 9cbe cae8 3c3e
000000a0: 3715 a73f 5be2 c93d a205 d2bf 887b b63e
000000b0: 6c59 593d 008d f63e 67bc 9c3e ccc5 f13e
000000c0: 91d4 533e d1db 8fbe 8b23 3cbe 3f7d 593e
000000d0: 7502 ae3e e614 ecbf 8f6c 083e d91c 95bf
000000e0: 3272 7f3e 2a0b 07be 6468 55bf fefd b23e
000000f0: 3e8e 163f 4697 b1be bf9f b1bd 9e85 df3d
00000100: 17a2 e73f 7363 01c0 ede7 e93e 013c a93d
00000110: dbb2 283f 1450 2d3f 9042 833e 6d3b 83be
00000120: e6db ebbe a99e c4bf 5ed7 543e b6c0 03bf
00000130: 4795 dd3d 38e9 093f 8f6b 21be 89ce d53e
00000140: e721 393e 2648 71be 80ed cc3d 957e 2f3c
00000150: 2c72 9fbe ce7f 233f bb8e c53e e5c9 b0bf
00000160: a75c 633f 0c2a d73e 42ff 72be 83b4 123f
00000170: 96aa 1abf 8954 803f 224c edbf db28 3ebe
00000180: 1ac1 96bf 357e bd3e ba0f e03e e07c 493e
00000190: 16eb c83b a906 7ebf 7a0b 493f e39d ac3e
000001a0: 7d04 0e3e 94ae afbe 031d 2cbf cc4c 00bf
000001b0: 7e16 fc3e f77e 7a3c 5b63 8cbe 85f5 76be
000001c0: 05fc 8a3e c82b 31bf fa36 093f e5cf 4bbe
000001d0: 0d9d 843e 64ef cf3e 9242 5a3f ee78 003e
000001e0: 7d82 b83e 79ea e53e 94b6 e13e 7679 8a3e
000001f0: 326b 8c3e d019 c43e 9788 973d 8704 383f
00000200: 4850 993e 4b50 53bd e8b2 fc3e 3750 cf3e
00000210: 0e0e 263f 82fa 133c 1bfa a3bf e12c d23c
00000220: e825 e6bd 5019 803e 5162 54bf 50e4 303e
00000230: a50d 57be cee9 2cbf 02c6 903e f88e 8fbd
00000240: a1c0 7e3d dfe5 543f a679 0fbe 5ae7 24bf
00000250: fa9e 873c b993 12bf 4f48 08bf 0408 36bf
00000260: dd0d 38be 0c1e 243f 6b0a 86bc 45ce ccbd
00000270: b9ed ab3e b0f3 cd3e dcd9 18be 5e78 d1be
00000280: c559 77be e363 ff3e bd20 e63e 0838 ef3e
00000290: 03ea 563f de53 7b3f cb78 803e 03d1 56bf
000002a0: 0b41 f0bc f9e6 363d 6c2e e0be e615 34bf
000002b0: 0eac 493e 9cee b7be 326b 073f f22a a4be
000002c0: b822 943d abce ff3e f988 e33d a33e f33e
000002d0: 8d93 18be 7812 9a3f 2540 5abf e77a 60be
000002e0: 9d19 1dbf 9ed1 0b3f 4fdf 0c3f 8ad4 793d
000002f0: d148 f8bd c770 bd3e 6d8e f03e 851e 51be
00000300: 9e1d abbd ccf3 d33d 5add dbbd f5e0 76be
00000310: d0bf 27be f24b a13f 8890 3ebf cf5c 5fbe
00000320: ceda 8f3e 2bdc 82be 4ac0 93bf 5d2a 403d
00000330: 524b 133f 5620 fe3e ea37 113c 5490 043f
00000340: 8745 833d e303 673d 3472 6c3d 4fea 42be
00000350: a4cc d83e 01a5 333f 695f 943f 6108 bbbf
00000360: f989 733e 5980 613f a2c3 a13e 9bce 4cbf
00000370: 9613 8cbf 2ad5 753e 5972 353d e129 e1bf
00000380: 3c74 d0bf df83 353d bbca 6fbe 99a0 dfbe
00000390: 45fd 11be a97e b0be e652 29bf ac63 e03e
000003a0: 23f6 03bd 6540 a33e 2692 5f3f adcb 2b3f
000003b0: 420c 6bbe 785f 723e 0cf9 c93e bf7c 693e
000003c0: 6f81 d4be 9257 8ebe 52de b43d 24b5 da3e
000003d0: 2a03 cd3e 522a b2bf f54a c1be 1745 9e3e
000003e0: 2a1a 8a3e 61c5 36bf c18b 10be 889c 00be
000003f0: 37a7 4ebe aa7a 51bf c076 6cbe c61e 92be
-0.66806936 0.009297549 1.1051149 0.22561626 -0.66799796 0.088275105 0.0783883 0.52783906
0.31452316 -0.120558485 1.5564151 -0.5630405 -0.17639959 0.08569759 0.07344414 0.40731144
0.5625184 0.25790092 0.221085 0.6723944 0.01893579 0.39539272 -0.71882313 0.6533521
0.6499355 -0.4238672 0.16884702 -0.22920007 0.03709971 -1.0096449 -0.1396577 -1.2068242
-0.7063796 -0.08237241 -0.2858747 -0.26416883 0.3029168 -0.39436162 -0.30596676 0.18448177
1.3053349 0.09857627 -1.6407969 0.35641122 0.053063795 0.4815445 0.3061249 0.4722122
0.20686556 -0.28097394 -0.18372934 0.21239184 0.3398625 -1.8443878 0.13322662 -1.1649429
0.24945906 -0.13187853 -0.8336241 0.34959406 0.58810794 -0.34685725 -0.08673047 0.10914157
1.8096341 -2.021695 0.45684758 0.08263398 0.6589791 0.67700315 0.2563672 -0.25631276
-0.46066207 -1.5360919 0.20785281 -0.5146593 0.10819488 0.5387149 -0.15763687 0.41759136
0.18079339 -0.23562679 0.10006237 0.010711332 -0.31141794 0.6386689 0.38585457 -1.3811613
0.8881325 0.42024267 -0.23730186 0.5730669 -0.60416543 1.0025798 -1.8538859 -0.18570273
-1.177768 0.3701035 0.43761998 0.19676542 0.00613154 -0.9922891 0.78533137 0.33714208
0.138689 -0.3431288 -0.6723177 -0.5011718 0.4923591 0.01528906 -0.27419552 -0.24117096
0.271454 -0.6920743 0.5359951 -0.19903524 0.2590107 0.40612328 0.8525783 0.12546131
0.36037055 0.4490545 0.4408461 0.27045792 0.27425534 0.38300943 0.07399099 0.7188191
0.29944062 -0.051590245 0.49355245 0.40490887 0.64865196 0.009031894 -1.2810701 0.025656166
-0.11237699 0.25019312 -0.8296252 0.17274594 -0.21001299 -0.6754426 0.28276068 -0.07009691
0.062195424 0.83163255 -0.14011249 -0.64415514 0.016555298 -0.57256657 -0.53235334 -0.7110598
-0.17974038 0.6410835 -0.01636239 -0.1000028 0.33579805 0.4022498 -0.14926857 -0.40912145
-0.24155338 0.49880895 0.44946852 0.46722436 0.83950824 0.98174846 0.25092158 -0.83912677
-0.02932789 0.044653866 -0.43785417 -0.70345914 0.1969454 -0.35924232 0.5289794 -0.32064015
0.072331846 0.49962363 0.1111011 0.47508726 -0.14900036 1.2036886 -0.85254127 -0.21921884
-0.6136721 0.54616725 0.5502824 0.06099371 -0.121232636 0.37000105 0.46983662 -0.20421799
-0.083552584 0.10349235 -0.10735579 -0.24109252 -0.16381764 1.2601302 -0.7443929 -0.21812747
0.28096622 -0.255586 -1.1543057 0.0469154 0.57536805 0.49634045 0.008863429 0.5178273
0.06409746 0.05640019 0.0577261 -0.19034694 0.42343628 0.7017365 1.1591617 -1.4611932
0.23783101 0.8808647 0.31594568 -0.80002755 -1.0943477 0.24007097 0.044298504 -1.7590905
-1.6285472 0.044315215 -0.2341718 -0.43677214 -0.14256771 -0.34471634 -0.6614212 0.43826044
-0.032217156 0.31885067 0.8733238 0.6710766 -0.22953895 0.23669231 0.3944782 0.22801493
-0.41505 -0.27801186 0.08831467 0.42716324 0.40041476 -1.3919165 -0.377525 0.30912086
0.26973087 -0.71394926 -0.14115812 -0.12559712 -0.20180975 -0.81827796 -0.23092175 -0.28539103

fc2.bias f4 [64]
00000000: d647 61be abb4 c13c c30d 04bf 61f1 883d
00000010: 15e5 bcbc 9ac9 16be 0142 c63e 983a 5a3f
00000020: 4ca8 273f fe94 b93c b4c6 823f 8e51 1d3e
00000030: 09bc c23e 041c 0ebf 3935 733e 46ee 353e
00000040: b383 fa3e 85c4 17be dd92 ebbd 9c7f d3be
00000050: 8155 eb3d 3883 1abe 4517 033f ce29 333f
00000060: d9f1 4b3e cce0 803f 2afd 36be 3000 edbe
00000070: 10a2 bf3e 9ca7 0f3f 96a1 883f 911a a83e
00000080: 701c 9d3e cef7 213f ef24 aebe d3a1 ebbe
00000090: caae f93e 3dec 2fbe c58f 923e f99c f83e
000000a0: 4246 a43f e8f1 c9bd 60a4 b23e c6d0 09bf
000000b0: 3778 953e 8d12 a8be c40b ccbe f24b 06bf
000000c0: c051 d53e 823c 52bb fe79 1f3f a6a6 443e
000000d0: e11d e1be c220 073f 1004 733e 015d 013e
000000e0: 47e8 963f 73e0 c7be 78f7 69be 2951 e13e
000000f0: 2123 22be 1466 683f 9a7d e53e d6ca 613f
-0.2200006 0.02364572 -0.515835 0.066866644 -0.023058454 -0.14725342 0.38722232 0.85245657
0.65491176 0.022654053 1.0216889 0.15363142 0.38034084 -0.555115 0.23750772 0.17766675
0.48928604 -0.1482106 -0.11502621 -0.41308296 0.11490918 -0.15089118 0.5120738 0.69985664
0.19916476 1.0068603 -0.17870012 -0.46289206 0.3742833 0.56115127 1.0674312 0.3283277
0.3068576 0.63268745 -0.34012553 -0.460219 0.48766166 -0.17179962 0.28625312 0.4855726
1.2833941 -0.09860593 0.34891033 -0.5383419 0.2919328 -0.32826653 -0.39852726 -0.52459633
0.41663933 -0.0032079522 0.6229552 0.19204196 -0.43968108 0.5278436 0.23732018 0.12633134
1.1789635 -0.3903843 -0.22848308 0.44007233 -0.15833713 0.9078076 0.4482239 0.8820013

fc3.weight f4 [64, 64]
00000000: d7a9 d5bd e9c7 80bd 5594 96c0 8442 aebd
00000010: fcd4 67bd 6d9f 2bbf 9f95 683f 5b8b 323f
00000020: facc 283e 899e 573e 41ea 833e 3ec0 d5bd
00000030: 32bd 0a3f 35c1 6e3e df2a 133f bfd0 6b3e
00000040: e4af 1b3f 4778 1cbf c7ea 46bd b080 b3bf
00000050: c6e3 ddbe 4cb6 20be 9f7e a43e e68f d2be
00000060: 0a52 be3f d66d 1d3f 4546 74bf 2e82 0940
00000070: 073e f63d 7097 05be 7a05 893f 331c debb
00000080: 89ef 723e 4f04 5d3d 0837 aebf 760d 09c0
00000090: a67e 543e 9f36 88be 596b 84bc 9498 2a3f
000000a0: c341 c23e e8ca 213f cdb1 643f 5f33 76bf
000000b0: cfec 4abe 700e 13c0 e9b3 00c0 fcf6 2bbf
000000c0: c2a9 1dbf bc6a 7ebf 2da1 683e 111e 783f
000000d0: b76f 67bf 0887 363f 0944 0b3f f1d4 67be
000000e0: 5d59 bb3d 526c f83e a52d 10bc 1116 b33e
000000f0: abda d5bd dfe9 41bf a2c6 cebe 550d 3a3e
00000100: f6d9 173f b6ed 333f 7013 c03f f0e5 4bbe
00000110: 0dce 0e3e 915f 343d 7272 32bf a189 1dbf
00000120: 0745 893e 0167 9b3e bb99 123e c25f 013e
00000130: ad07 fbbe 88cf fcbf fe19 10be 636a 803e
00000140: aa66 503e 852e 013e 25c8 03bc 85f2 113f
00000150: f44b b93e 214f 84be 1433 8d3e f2cc 3b3f
00000160: 4fc5 cfbf 3327 3a3e b143 e83e a425 bebf
00000170: e35d 1bbf 2c3b e83e 4bd8 7bbf 09db d53d
00000180: 4be9 d1bd 38a3 6b3c 4d81 6c3f cd17 0340
00000190: 6d79 473c a05a 713e 8f01 b93e 4b8c bbbe
000001a0: 70be 5a3e f11b f7be 954b 5dbf f611 7a3e
000001b0: cea6 093d 4c0e 533f b5f4 343f fec2 4f3e
000001c0: 20a0 863e 9cff adbe 60fb 763d 1a4c a6be
000001d0: 449a 7a3e 9608 c2be 6b0c 2bbf 58af 503e
000001e0: 9a76 a23c 0bbb a8bf c9d1 37bf ebd9 31be
000001f0: 3950 a13d bca8 043f 201b 3a3f 54ae 293f
00000200: 1a55 0d3f c300 dd3f cdf5 8f3f f00a 513d
00000210: c80b a7bb 529e 333f 85be ae3e 55d3 f5bf
00000220: e766 b2bb 8f3c d13e 5794 4b3e 37c4 f63e
00000230: 268c bcbf 0ffe 72bf 63d2 83be ccef 883e
00000240: accd 6c3d ec16 cf3e eec5 063f a57e fb3e
00000250: 51e8 0ebd c9af 293e 297b 933d 0127 263f
00000260: 24a7 85bf f295 f4be 11d1 a1be b526 96bf
00000270: 759a 16bf d085 9b3e 7683 d4bf c537 99be
00000280: d556 f73e 8887 39bf e55c ab3e 5fe2 4540
00000290: c9f7 d83d 8dcd ce3e d1cc 903f ced1 123c
000002a0: cf44 e63d 8d27 0f3f 4a97 25bf 2467 273f
000002b0: 4cb5 e73e 45e3 fe3e cc23 353f fc6c 903f
000002c0: 28fa 443e b0de a13e 6b4e d83e b330 45bf
000002d0: 9544 57be 92b0 4cbf 1c01 84bf e1b2 103f
000002e0: 808d ad3e c5dc 29bf 4f43 fe3e 77ce f3bd
000002f0: 542b ee3d 663b 883e eae7 023f 415a 73bf
00000300: 9c8b a2bd 3dc3 ac3c a215 82c0 313a c43e
00000310: 9908 a83e 8d0f debe b241 1a3f 129d ce3e
00000320: 8c8b 5d3e a5ae 32bd 552f 8a3e d30e 6a3c
00000330: 2e06 ea3e 2279 333f bf99 3c3f 7aa9 42be
00000340: 1454 903e 4b20 0fbf 0abe f53e 87a7 9abf
00000350: dcd7 96be 98d6 bcbe 635c 3c3e 7fc0 74be
00000360: 425b f03f 3b46 043f d066 41bf c47e fb3f
00000370: 2591 5c3e db3a a6be 7d15 7f3f 5bee d4bd
00000380: d8d5 fb3e c9a8 6c3e f2ec 3cbf a237 acbf
00000390: 3b61 f1bd 4667 a8be f689 c1be 8547 393f
000003a0: 8929 4b3e 57e1 e03e f913 883f 5a4b 4fbf
000003b0: 7b06 6ebe aeba bdbf 108c b7bf 90ad ccbe
000003c0: 2462 29bf cd68 25bf 39a6 ec3c 6f68 a53f
000003d0: 1b44 55bf c552 3e3f cbfc d73e 483c 99be
000003e0: 8d40 593e 538f 5c3f 9854 7c3e 5f1a e63e
000003f0: 190b 933d 53ec 45be c7e2 0abf 9a79 f03e
-0.10432785 -0.0628813 -4.705607 -0.085087806 -0.056599602 -0.6704014 0.90853304 0.6974389
0.16484442 0.2105657 0.2576466 -0.10437058 0.5419494 0.2331589 0.5748729 0.23028849
0.6081526 -0.6112103 -0.048563745 -1.4023647 -0.4333784 -0.1569454 0.32127854 -0.4112541
1.4868786 0.6149572 -0.9541972 2.1485705 0.120235495 -0.1304605 1.0704796 -0.006778264
0.23724188 0.053959187 -1.3610544 -2.1414466 0.20751438 -0.26604173 -0.016164469 0.66639066
0.37940797 0.63200235 0.893338 -0.96172136 -0.19816898 -2.2977562 -2.0109808 -0.67173743
-0.61587155 -0.99381614 0.22717734 0.9692088 -0.9040484 0.7129979 0.5440069 -0.22639824
0.09147904 0.48520142 -0.008799945 0.34977773 -0.10442098 -0.75747484 -0.4038592 0.18169148
0.59316957 0.70284593 1.5005932 -0.19911933 0.1394579 0.04403645 -0.6970588 -0.6153813
0.26810476 0.30352023 0.14316456 0.12634185 -0.49029294 -1.9750834 -0.14072415 0.25081167
0.20351663 0.12615402 -0.008043324 0.5701068 0.3619076 -0.2584162 0.27578032 0.73359597
-1.6232089 0.18179016 0.45364144 -1.4855237 -0.60690135 0.45357645 -0.9837691 0.10442168
-0.10249575 0.014382176 0.923848 2.0483277 0.012174946 0.23569727 0.36134002 -0.36630473
0.21361709 -0.48263505 -0.86443454 0.24420914 0.033606343 0.8244369 0.70685893 0.20289227
0.2629404 -0.33984077 0.060298324 -0.32479936 0.2447291 -0.37897176 -0.66815823 0.20379388
0.019831944 -1.3182081 -0.7180448 -0.17368285 0.078766294 0.5181997 0.7269764 0.6628163
0.5520798 1.7265857 1.1246887 0.05103582 -0.00509784 0.7016345 0.3412973 -1.9205118
-0.005444396 0.40866515 0.19880806 0.48196575 -1.473027 -0.9491891 -0.2574645 0.2674545
0.05781333 0.40447176 0.52645767 0.4912006 -0.034889523 0.16570963 0.07201225 0.64903265
-1.0441632 -0.4777065 -0.31604818 -1.1730562 -0.5882943 0.30375528 -1.6602619 -0.2992536
0.48308435 -0.7247243 0.3346931 3.0919416 0.10594136 0.40391198 1.1312505 0.008961154
0.11243593 0.55919725 -0.64683974 0.65391755 0.45255506 0.49782768 0.70757747 1.1283259
0.19236052 0.3161521 0.42247328 -0.77027434 -0.21022256 -0.79956925 -1.0312839 0.5652295
0.33897018 -0.6635249 0.49660727 -0.119046144 0.11629358 0.26607817 0.5113512 -0.9505959
-0.079367846 0.02108919 -4.0651407 0.38325647 0.3281906 -0.4337124 0.60256493 0.4035421
0.21635264 -0.043623585 0.26989236 0.014285761 0.4570784 0.7010671 0.736721 -0.19009963
0.28189147 -0.5590865 0.4799655 -1.2082375 -0.29461563 -0.36882472 0.18394618 -0.23901556
1.877785 0.51669663 -0.75547504 1.9648061 0.21539743 -0.32466778 0.99642164 -0.10397025
0.49186587 0.23111261 -0.7379905 -1.3454478 -0.11786123 -0.3289129 -0.37800568 0.72374755
0.19840063 0.4392192 1.0631095 -0.8097435 -0.2324466 -1.4822595 -1.4339619 -0.39976168
-0.66165376 -0.6461304 0.028887855 1.2922496 -0.83307046 0.74345046 0.42185053 -0.29928803
0.2121603 0.86156195 0.24641645 0.44941995 0.07179851 -0.19328432 -0.54252285 0.46967775

fc3.bias f4 [64]
00000000: e6bd f33e 404c b13d 06c1 ac3c b311 e63e
00000010: 981e 4c3d c864 31bd 1af2 76bb 2c70 bf3d
00000020: 25e1 213e 42df 563e 94f4 d6bb 5a44 b8ba
00000030: 5d62 073e 7998 debd 0bda dc3d f752 863f
00000040: ca3c c2bd 841f 063e 6279 f53d 3e04 3f3f
00000050: 6be9 c4bd e3f8 573f 547b 293d 5118 c83d
00000060: 9f27 b4bd f47e 9b3d e577 35bd 5886 7d3f
00000070: 0d25 883f 0f84 563c b913 dc3d 858e 733c
00000080: 70af 27bc a1bd e23d 2288 673d 70f2 ad3e
00000090: 6ed8 0abd c3b6 6a3f 4dd5 c53d d6d1 cebd
000000a0: 9726 5a3e 8a26 79bc dc9f c63e eccf bd3d
000000b0: ae7e 2c3e 5912 203c fe13 1a3d adbd dd3e
000000c0: 78f8 ecbd 1478 cd3c f38a 633d 07f7 b3be
000000d0: d2ef 213e 0025 113f 3c49 033d 8b8b 50bd
000000e0: d26a 71be cd43 bbbd dd62 d03d c12d f03d
000000f0: ea53 04be 0ff9 93bc e729 84bd 02c7 76be
0.4760582 0.08657122 0.021088134 0.44935378 0.049833864 -0.043309003 -0.0037680925 0.09347567
0.15808542 0.20983604 -0.0065599177 -0.0014058456 0.13221116 -0.108689256 0.10783776 1.0494069
-0.09484251 0.1309796 0.119860426 0.7461585 -0.096148334 0.84364146 0.04137738 0.09770263
-0.087966196 0.07592574 -0.044303793 0.9903312 1.0636307 0.013093009 0.10745949 0.014865522
-0.010234699 0.11071325 0.05652631 0.33974028 -0.03389781 0.9168512 0.096598245 -0.10098617
0.21303783 -0.015206942 0.38793838 0.092681736 0.168452 0.009769999 0.037616722 0.43308774
-0.11570829 0.025081672 0.055552434 -0.35149404 0.1581414 0.5669708 0.032052264 -0.05091433
-0.23575905 -0.09143791 0.10175107 0.11727477 -0.12922636 -0.018063096 -0.06453305 -0.24099353

fc4.weight f4 [4, 64]
00000000: b032 973f 3fd2 0fbf 6f07 a6bf cefb 543f
00000010: c1da a6be 68d6 733d 823b 0bbf 701b 13be
00000020: cec2 d8be f855 43bf 5661 b7bf dcb2 f93f
00000030: b3ec 29bf 4d05 6bbd 2e2c 523d 400c be3f
00000040: fd45 95bf 1203 c2bf 21b7 95bd cf17 4a3e
00000050: c47c 8dbf f84e 0340 b09d d6be 5b44 e7bf
00000060: 99ff babf 2dfd 29bf a698 a9bf c17e 2f3f
00000070: 0014 0c40 838a 8ebf 1c87 0640 edcd febe
00000080: 4808 c2be e0a0 56be 8485 08bf 64af 65bf
00000090: accf ce3d 7316 b83f d88d d9bf f124 84bf
000000a0: 6529 afbf ea25 f73c 3dbc 1e40 ae89 0bbf
000000b0: 42ab a0be 0711 5f3d 9aaf 9ebe f6ee 0240
000000c0: 974f 7fbf 7583 b7bf 6a29 b1be bedb 76bf
000000d0: 0f14 96bf 0b8f 423f cdd8 3bbf 1a26 eabf
000000e0: 33b6 d9bd 4bac be3c 6645 2abf 6ca8 55bf
000000f0: c8f2 90bc 619f 1dbe 3842 dc3f 9198 e9be
00000100: ab3b f03e 33d9 d4be b54e 01c0 3f4b 7a3f
00000110: 60e4 13bf 7abe c5bd 8580 67be d269 aebf
00000120: 4b44 9abe d3b5 07bf a1a2 27bf fa3a ea3f
00000130: 6b67 42be 3f45 a7bc cae5 dc3d 3b7d 9f3f
00000140: e129 e2bf 91bb a0bf 0120 893e fed4 963e
00000150: 4a3b c1bf ee59 0240 7675 aebe cbd4 4ebf
00000160: 8e15 b4bf 8db2 89bf 8226 8cbf 1c7c d23f
00000170: 905e 0140 7ea6 8cbf c7e5 e13f c9f9 15bf
00000180: 1bc6 c5be d4f1 223e 8c13 47bf 0c88 cabf
00000190: 648f ed3d e3d8 ad3f 46d0 a6bf ac9a 26bf
000001a0: 56d8 e3bf 7462 ca3c 0f7f b23f fd3e b9be
000001b0: 367e bebe cddf 923d 0405 8ebe 9915 0a40
000001c0: 5333 37bf 7f90 83bf 2821 f6be 7575 bcbf
000001d0: 9490 42bf 167f 6c3f a2f0 34bf 9d3a 71bf
000001e0: 5368 383f 8154 a73d 4655 8bbf e4ba 73bf
000001f0: 8eaa 6bbd 3ecc 6ebf 5c4d e23f f839 b6bf
00000200: dc70 443f c025 1abe 7963 97bf 4880 153f
00000210: 6028 1dbe d0a3 513d afad 1ebf 1d2f 80bf
00000220: b490 aebe 6f50 a0be 597d 98bf f45a f73f
00000230: 9b1f 3cbf ff08 98bf b436 c2bd 2855 b73f
00000240: f8d2 34bf 44b6 47bf 6dc9 dfbe bba9 c33f
00000250: b724 dfbe 2a92 f23f ac51 08bf be66 8ebf
00000260: d2ab 95bf f813 8abf 29f9 cdbf d973 803f
00000270: 31c6 db3f 93da 94bf 66c2 ed3f 2290 5bbf
00000280: b7fb a9be 123d e5be 2784 3bbe 4733 7dbf
00000290: f094 60bd 2d57 a73f 5f79 20bf a030 bcbf
000002a0: 729a 80bf a5db 993d a4ba 3b40 be46 16bf
000002b0: 610c 92be 05ea 403d a31b 88be f8f5 0240
000002c0: 905b 75bf 3602 5bbf 088a d2be 285e 05c0
000002d0: 4579 74bf ae57 993f 494c 83bf af53 82bf
000002e0: 3d60 87be e64c b6bd 2ef7 9fbd 66f9 88bf
000002f0: 5078 b23d 5455 9fbf 487f df3f 4bba 17c0
00000300: 795b c33f fd98 bebe 0e56 04bf ff6b a13f
00000310: b2d9 59bf 9c49 cebd 8656 05be a2be 88bf
00000320: 5b62 9dbe d17b 45bf e9fa ffbf a949 0740
00000330: e8cc 69bf 1ea9 67bd facc a23b 052b e13f
00000340: bc70 e2bf 7c3e d4bf d871 26bf 0987 523e
00000350: 2730 6cbf 3f9a dc3f e073 90be 371b 76bf
00000360: 65b1 d8bf ed30 d3be 70a9 c8bf 0d7a 51be
00000370: c2f3 0440 81ed 7bbf d0d5 0b40 3659 f0be
00000380: c61d d4be 8c96 d0be 80f4 f6be c048 3dbe
00000390: 6520 cfbd 0fd6 e93f 2275 35bf 4590 a3bf
000003a0: 8a2d b9be 9082 83bd 12a3 9a3f 99fe 66bf
000003b0: cb25 05bf 290f 073d 4394 e5be f5b1 ff3f
000003c0: 8f02 a1bf 6999 df3e 8602 babe 19a4 cbbf
000003d0: d666 76bf ac8b 153f 9953 7ebf a72e 48bf
000003e0: 73eb 79bf 4462 7e3d 2132 20bf 3042 90bf
000003f0: f23e 8dbd e123 34bf bb72 d83f 779a 0dbf
1.1812344 -0.56180185 -1.2971019 0.83196723 -0.3258877 0.059530646 -0.54387677 -0.14365935
-0.42336124 -0.7630305 -1.432658 1.9507709 -0.663768 -0.057378102 0.051311664 1.4847488
-1.1661984 -1.5157187 -0.0731032 0.19735645 -1.10537 2.0516949 -0.4191718 -1.8067735
-1.4609252 -0.6640194 -1.324971 0.68552786 2.1887207 -1.113602 2.1019964 -0.49766484
-0.37896943 -0.20959806 -0.5332873 -0.8972075 0.10098204 1.4381851 -1.6996412 -1.0323774
-1.3684508 0.030169446 2.4802392 -0.5450696 -0.3138066 0.054459598 -0.30993348 2.045835
-0.9973082 -1.4336993 -0.3460191 -0.9642905 -1.1724871 0.75999516 -0.73377687 -1.8292878
-0.10630455 0.023275515 -0.66512144 -0.83460116 -0.017693892 -0.1539283 1.7207708 -0.4562421
0.46920523 -0.4157196 -2.020429 0.97771066 -0.5777035 -0.09655471 -0.2260762 -1.3626044
-0.30130228 -0.53011817 -0.65482527 1.8299248 -0.18984763 -0.020418761 0.10786016 1.2460092
-1.766903 -1.2557241 0.2678223 0.29459375 -1.5096219 2.0367389 -0.3407399 -0.80793446
-1.4069078 -1.0757614 -1.0949252 1.6444125 2.0213966 -1.0988309 1.7648247 -0.58584267
-0.38627705 0.15912563 -0.777642 -1.5822768 0.11599615 1.3581814 -1.303231 -0.6507976
-1.7800395 0.02470515 1.3945025 -0.3618087 -0.37205666 0.07171593 -0.27738202 2.1575682
-0.7156269 -1.0278472 -0.4807217 -1.4723345 -0.7600186 0.9238142 -0.70679677 -0.9423006
0.72034186 0.08170415 -1.0885398 -0.9520705 -0.0575357 -0.932804 1.7679858 -1.4236441
0.7673471 -0.15053463 -1.1827232 0.58398867 -0.15347433 0.051181614 -0.6198377 -1.0014378
-0.34094775 -0.31311366 -1.1913253 1.9324632 -0.73485726 -1.1877745 -0.0948309 1.4322863
-0.7063441 -0.7801249 -0.43708363 1.5286173 -0.435827 1.8950856 -0.5324962 -1.1125104
-1.169306 -1.0787344 -1.6091663 1.0035354 1.7169858 -1.1629204 1.8574951 -0.85766804
-0.33199856 -0.44773155 -0.18312131 -0.9890637 -0.054829538 1.3073479 -0.626852 -1.4702339
-1.0047133 0.07512597 2.9332666 -0.58701694 -0.2852507 0.04709818 -0.26583585 2.0462627
-0.9584284 -0.8555025 -0.41120934 -2.0838718 -0.9549754 1.1979883 -1.0257655 -1.0181788
-0.2644061 -0.08901386 -0.07810818 -1.070111 0.08714354 -1.2447915 1.7460718 -2.3707454
1.526229 -0.37226096 -0.5169381 1.2611083 -0.850978 -0.100726336 -0.13021287 -1.0683177
-0.30739102 -0.77142054 -1.9998447 2.1138709 -0.9132829 -0.056557767 0.0049682828 1.7591254
-1.7690654 -1.6581569 -0.6501746 0.20559324 -0.92260975 1.7234572 -0.28213406 -0.96135277
-1.6929137 -0.41248265 -1.5676708 -0.20456715 2.0773778 -0.9840928 2.184925 -0.46943063
-0.41428965 -0.40739858 -0.48233414 -0.18484783 -0.10113601 1.826845 -0.70881855 -1.2778403
-0.36167556 -0.06421387 1.2081015 -0.90232235 -0.5201079 0.032973442 -0.44839677 1.9976183
-1.2578906 0.4367173 -0.3633005 -1.5909454 -0.96250665 0.5841625 -0.9934631 -0.78196186
-0.9762489 0.062105432 -0.6257649 -1.1270199 -0.068967715 -0.70367247 1.6910013 -0.5531382

fc4.bias f4 [4]
00000000: d4f9 54be 3697 b53d e9b7 d03e dcf8 ffbc
-0.20798427 0.08866732 0.40765312 -0.031246595
